DataGenerated/NoiseFree/thetas.npy (npy, 1424 bytes, 1 tensors)

array f8 [81, 2]
000000 18 2d 44 54 fb 21 e9 bf 00 00 00 00 00 00 00 00
       -0.7853981633974483 0.0
000010 91 45 8f d8 21 81 e8 bf 00 00 00 00 00 00 00 00
       -0.7657632093125121 0.0
000020 0a 5e da 5c 48 e0 e7 bf 00 00 00 00 00 00 00 00
       -0.7461282552275759 0.0
000030 83 76 25 e1 6e 3f e7 bf 00 00 00 00 00 00 00 00
       -0.7264933011426397 0.0
000040 fc 8e 70 65 95 9e e6 bf 00 00 00 00 00 00 00 00
       -0.7068583470577035 0.0
000050 75 a7 bb e9 bb fd e5 bf 00 00 00 00 00 00 00 00
       -0.6872233929727672 0.0
000060 ee bf 06 6e e2 5c e5 bf 00 00 00 00 00 00 00 00
       -0.667588438887831 0.0
000070 67 d8 51 f2 08 bc e4 bf 00 00 00 00 00 00 00 00
       -0.6479534848028948 0.0
000080 e0 f0 9c 76 2f 1b e4 bf 00 00 00 00 00 00 00 00
       -0.6283185307179586 0.0
000090 59 09 e8 fa 55 7a e3 bf 00 00 00 00 00 00 00 00
       -0.6086835766330224 0.0
0000a0 d2 21 33 7f 7c d9 e2 bf 00 00 00 00 00 00 00 00
       -0.5890486225480862 0.0
0000b0 4b 3a 7e 03 a3 38 e2 bf 00 00 00 00 00 00 00 00
       -0.56941366846315 0.0
0000c0 c4 52 c9 87 c9 97 e1 bf 00 00 00 00 00 00 00 00
       -0.5497787143782138 0.0
0000d0 3d 6b 14 0c f0 f6 e0 bf 00 00 00 00 00 00 00 00
       -0.5301437602932776 0.0
0000e0 b6 83 5f 90 16 56 e0 bf 00 00 00 00 00 00 00 00
       -0.5105088062083414 0.0
0000f0 5e 38 55 29 7a 6a df bf 00 00 00 00 00 00 00 00
       -0.4908738521234052 0.0
000100 50 69 eb 31 c7 28 de bf 00 00 00 00 00 00 00 00
       -0.47123889803846897 0.0
000110 42 9a 81 3a 14 e7 dc bf 00 00 00 00 00 00 00 00
       -0.45160394395353276 0.0
000120 34 cb 17 43 61 a5 db bf 00 00 00 00 00 00 00 00
       -0.43196898986859655 0.0
000130 26 fc ad 4b ae 63 da bf 00 00 00 00 00 00 00 00
       -0.41233403578366035 0.0
000140 18 2d 44 54 fb 21 d9 bf 00 00 00 00 00 00 00 00
       -0.39269908169872414 0.0
000150 0a 5e da 5c 48 e0 d7 bf 00 00 00 00 00 00 00 00
       -0.37306412761378793 0.0
000160 fc 8e 70 65 95 9e d6 bf 00 00 00 00 00 00 00 00
       -0.3534291735288517 0.0
000170 ee bf 06 6e e2 5c d5 bf 00 00 00 00 00 00 00 00
       -0.3337942194439155 0.0
000180 e0 f0 9c 76 2f 1b d4 bf 00 00 00 00 00 00 00 00
       -0.3141592653589793 0.0
000190 d2 21 33 7f 7c d9 d2 bf 00 00 00 00 00 00 00 00
       -0.2945243112740431 0.0
0001a0 c4 52 c9 87 c9 97 d1 bf 00 00 00 00 00 00 00 00
       -0.2748893571891069 0.0
0001b0 b6 83 5f 90 16 56 d0 bf 00 00 00 00 00 00 00 00
       -0.2552544031041707 0.0
0001c0 50 69 eb 31 c7 28 ce bf 00 00 00 00 00 00 00 00
       -0.23561944901923448 0.0
0001d0 34 cb 17 43 61 a5 cb bf 00 00 00 00 00 00 00 00
       -0.21598449493429828 0.0
0001e0 18 2d 44 54 fb 21 c9 bf 00 00 00 00 00 00 00 00
       -0.19634954084936207 0.0
0001f0 fc 8e 70 65 95 9e c6 bf 00 00 00 00 00 00 00 00
       -0.17671458676442586 0.0
000200 e0 f0 9c 76 2f 1b c4 bf 00 00 00 00 00 00 00 00
       -0.15707963267948966 0.0
000210 c4 52 c9 87 c9 97 c1 bf 00 00 00 00 00 00 00 00
       -0.13744467859455345 0.0
000220 50 69 eb 31 c7 28 be bf 00 00 00 00 00 00 00 00
       -0.11780972450961724 0.0
000230 18 2d 44 54 fb 21 b9 bf 00 00 00 00 00 00 00 00
       -0.09817477042468103 0.0
000240 e0 f0 9c 76 2f 1b b4 bf 00 00 00 00 00 00 00 00
       -0.07853981633974483 0.0
000250 50 69 eb 31 c7 28 ae bf 00 00 00 00 00 00 00 00
       -0.05890486225480862 0.0
000260 e0 f0 9c 76 2f 1b a4 bf 00 00 00 00 00 00 00 00
       -0.039269908169872414 0.0
000270 e0 f0 9c 76 2f 1b 94 bf 00 00 00 00 00 00 00 00
       -0.019634954084936207 0.0
000280 00 00 00 00 00 00 00 00 00 00 00 00 00 00 00 00
       0.0 0.0
000290 e0 f0 9c 76 2f 1b 94 3f 00 00 00 00 00 00 00 00
       0.019634954084936207 0.0
0002a0 e0 f0 9c 76 2f 1b a4 3f 00 00 00 00 00 00 00 00
       0.039269908169872414 0.0
0002b0 50 69 eb 31 c7 28 ae 3f 00 00 00 00 00 00 00 00
       0.05890486225480862 0.0
0002c0 e0 f0 9c 76 2f 1b b4 3f 00 00 00 00 00 00 00 00
       0.07853981633974483 0.0
0002d0 18 2d 44 54 fb 21 b9 3f 00 00 00 00 00 00 00 00
       0.09817477042468103 0.0
0002e0 50 69 eb 31 c7 28 be 3f 00 00 00 00 00 00 00 00
       0.11780972450961724 0.0
0002f0 c4 52 c9 87 c9 97 c1 3f 00 00 00 00 00 00 00 00
       0.13744467859455345 0.0
000300 e0 f0 9c 76 2f 1b c4 3f 00 00 00 00 00 00 00 00
       0.15707963267948966 0.0
000310 fc 8e 70 65 95 9e c6 3f 00 00 00 00 00 00 00 00
       0.17671458676442586 0.0
000320 18 2d 44 54 fb 21 c9 3f 00 00 00 00 00 00 00 00
       0.19634954084936207 0.0
000330 30 cb 17 43 61 a5 cb 3f 00 00 00 00 00 00 00 00
       0.21598449493429817 0.0
000340 50 69 eb 31 c7 28 ce 3f 00 00 00 00 00 00 00 00
       0.23561944901923448 0.0
000350 b8 83 5f 90 16 56 d0 3f 00 00 00 00 00 00 00 00
       0.2552544031041708 0.0
000360 c4 52 c9 87 c9 97 d1 3f 00 00 00 00 00 00 00 00
       0.2748893571891069 0.0
000370 d0 21 33 7f 7c d9 d2 3f 00 00 00 00 00 00 00 00
       0.294524311274043 0.0
000380 e0 f0 9c 76 2f 1b d4 3f 00 00 00 00 00 00 00 00
       0.3141592653589793 0.0
000390 f0 bf 06 6e e2 5c d5 3f 00 00 00 00 00 00 00 00
       0.33379421944391563 0.0
0003a0 fc 8e 70 65 95 9e d6 3f 00 00 00 00 00 00 00 00
       0.3534291735288517 0.0
0003b0 08 5e da 5c 48 e0 d7 3f 00 00 00 00 00 00 00 00
       0.3730641276137878 0.0
0003c0 18 2d 44 54 fb 21 d9 3f 00 00 00 00 00 00 00 00
       0.39269908169872414 0.0
0003d0 28 fc ad 4b ae 63 da 3f 00 00 00 00 00 00 00 00
       0.41233403578366046 0.0
0003e0 34 cb 17 43 61 a5 db 3f 00 00 00 00 00 00 00 00
       0.43196898986859655 0.0
0003f0 40 9a 81 3a 14 e7 dc 3f 00 00 00 00 00 00 00 00
       0.45160394395353265 0.0
000400 50 69 eb 31 c7 28 de 3f 00 00 00 00 00 00 00 00
       0.47123889803846897 0.0
000410 60 38 55 29 7a 6a df 3f 00 00 00 00 00 00 00 00
       0.4908738521234053 0.0
000420 b6 83 5f 90 16 56 e0 3f 00 00 00 00 00 00 00 00
       0.5105088062083414 0.0
000430 3c 6b 14 0c f0 f6 e0 3f 00 00 00 00 00 00 00 00
       0.5301437602932775 0.0
000440 c4 52 c9 87 c9 97 e1 3f 00 00 00 00 00 00 00 00
       0.5497787143782138 0.0
000450 4c 3a 7e 03 a3 38 e2 3f 00 00 00 00 00 00 00 00
       0.5694136684631501 0.0
000460 d2 21 33 7f 7c d9 e2 3f 00 00 00 00 00 00 00 00
       0.5890486225480862 0.0
000470 58 09 e8 fa 55 7a e3 3f 00 00 00 00 00 00 00 00
       0.6086835766330223 0.0
000480 e0 f0 9c 76 2f 1b e4 3f 00 00 00 00 00 00 00 00
       0.6283185307179586 0.0
000490 68 d8 51 f2 08 bc e4 3f 00 00 00 00 00 00 00 00
       0.6479534848028949 0.0
0004a0 ee bf 06 6e e2 5c e5 3f 00 00 00 00 00 00 00 00
       0.667588438887831 0.0
0004b0 74 a7 bb e9 bb fd e5 3f 00 00 00 00 00 00 00 00
       0.6872233929727671 0.0
0004c0 fc 8e 70 65 95 9e e6 3f 00 00 00 00 00 00 00 00
       0.7068583470577035 0.0
0004d0 84 76 25 e1 6e 3f e7 3f 00 00 00 00 00 00 00 00
       0.7264933011426398 0.0
0004e0 0a 5e da 5c 48 e0 e7 3f 00 00 00 00 00 00 00 00
       0.7461282552275759 0.0
0004f0 90 45 8f d8 21 81 e8 3f 00 00 00 00 00 00 00 00
       0.765763209312512 0.0
000500 18 2d 44 54 fb 21 e9 3f 00 00 00 00 00 00 00 00
       0.7853981633974483 0.0
